…
LOG_DEST: vida_240311_080826.txt
LOG_TIME: 240311_080826
MODEL:
  ADAPTATION: vida
  ARCH: Standard_VITB
  EPISODIC: False
OPTIM:
  BETA: 0.9
  DAMPENING: 0.0
  LR: 5e-07
  METHOD: SGD
  MOMENTUM: 0.9
  MT: 0.999
  MT_ViDA: 0.8
  NESTEROV: True
  STEPS: 1
  ViDALR: 2e-07
  WD: 0.0
RNG_SEED: 1
SAVE_DIR: ./output
TEST:
  BATCH_SIZE: 50
  ckpt: /dataset/imagent_vit_vida.pt
  vida_rank1: 1
  vida_rank2: 128
[24/03/11 08:08:38] [imagenetc.py:   38]: test-time adaptation: ViDA
[24/03/11 08:08:39] [imagenetc.py:  152]: model for adaptation: DataParallel(
  (module): VisionTransformer(
    (patch_embed): PatchEmbed(
      (proj): Conv2d(3, 768, kernel_size=(16, 16), stride=(16, 16))
      (norm): Identity()
    )
    (pos_drop): Dropout(p=0.0, inplace=False)
    (blocks): Sequential(
      (0): Block(
        (norm1): LayerNorm((768,), eps=1e-06, elementwise_affine=True)
        (attn): Attention(
          (qkv): ViDAInjectedLinear(
            (linear_vida): Linear(in_features=768, out_features=2304, bias=True)
            (vida_down): Linear(in_features=768, out_features=1, bias=False)
            (vida_up): Linear(in_features=1, out_features=2304, bias=False)
            (vida_down2): Linear(in_features=768, out_features=128, bias=False)
            (vida_up2): Linear(in_features=128, out_features=2304, bias=False)
          )
          (attn_drop): Dropout(p=0.0, inplace=False)
          (proj): ViDAInjectedLinear(
            (linear_vida): Linear(in_features=768, out_features=768, bias=True)
            (vida_down): Linear(in_features=768, out_features=1, bias=False)
            (vida_up): Linear(in_features=1, out_features=768, bias=False)
            (vida_down2): Linear(in_features=768, out_features=128, bias=False)
            (vida_up2): Linear(in_features=128, out_features=768, bias=False)
          )
          (proj_drop): Dropout(p=0.0, inplace=False)
        )
        (drop_path): Identity()
        (norm2): LayerNorm((768,), eps=1e-06, elementwise_affine=True)
        (mlp): Mlp(
          (fc1): Linear(in_features=768, out_features=3072, bias=True)
          (act): GELU()
          (fc2): Linear(in_features=3072, out_features=768, bias=True)
          (drop): Dropout(p=0.0, inplace=False)
        )
      )
      (1): Block(
        (norm1): LayerNorm((768,), eps=1e-06, elementwise_affine=True)
        (attn): Attention(
          (qkv): ViDAInjectedLinear(
            (linear_vida): Linear(in_features=768, out_features=2304, bias=True)
            (vida_down): Linear(in_features=768, out_features=1, bias=False)
            (vida_up): Linear(in_features=1, out_features=2304, bias=False)
            (vida_down2): Linear(in_features=768, out_features=128, bias=False)
            (vida_up2): Linear(in_features=128, out_features=2304, bias=False)
          )
          (attn_drop): Dropout(p=0.0, inplace=False)
          (proj): ViDAInjectedLinear(
            (linear_vida): Linear(in_features=768, out_features=768, bias=True)
            (vida_down): Linear(in_features=768, out_features=1, bias=False)
            (vida_up): Linear(in_features=1, out_features=768, bias=False)
            (vida_down2): Linear(in_features=768, out_features=128, bias=False)
            (vida_up2): Linear(in_features=128, out_features=768, bias=False)
          )
          (proj_drop): Dropout(p=0.0, inplace=False)
        )
        (drop_path): Identity()
        (norm2): LayerNorm((768,), eps=1e-06, elementwise_affine=True)
        (mlp): Mlp(
          (fc1): Linear(in_features=768, out_features=3072, bias=True)
          (act): GELU()
          (fc2): Linear(in_features=3072, out_features=768, bias=True)
          (drop): Dropout(p=0.0, inplace=False)
        )
      )
      (2): Block(
        (norm1): LayerNorm((768,), eps=1e-06, elementwise_affine=True)
        (attn): Attention(
          (qkv): ViDAInjectedLinear(
            (linear_vida): Linear(in_features=768, out_features=2304, bias=True)
            (vida_down): Linear(in_features=768, out_features=1, bias=False)
            (vida_up): Linear(in_features=1, out_features=2304, bias=False)
            (vida_down2): Linear(in_features=768, out_features=128, bias=False)
            (vida_up2): Linear(in_features=128, out_features=2304, bias=False)
          )
          (attn_drop): Dropout(p=0.0, inplace=False)
          (proj): ViDAInjectedLinear(
            (linear_vida): Linear(in_features=768, out_features=768, bias=True)
            (vida_down): Linear(in_features=768, out_features=1, bias=False)
            (vida_up): Linear(in_features=1, out_features=768, bias=False)
            (vida_down2): Linear(in_features=768, out_features=128, bias=False)
            (vida_up2): Linear(in_features=128, out_features=768, bias=False)
          )
          (proj_drop): Dropout(p=0.0, inplace=False)
        )
        (drop_path): Identity()
        (norm2): LayerNorm((768,), eps=1e-06, elementwise_affine=True)
        (mlp): Mlp(
          (fc1): Linear(in_features=768, out_features=3072, bias=True)
          (act): GELU()
          (fc2): Linear(in_features=3072, out_features=768, bias=True)
          (drop): Dropout(p=0.0, inplace=False)
        )
      )
      (3): Block(
        (norm1): LayerNorm((768,), eps=1e-06, elementwise_affine=True)
        (attn): Attention(
          (qkv): ViDAInjectedLinear(
            (linear_vida): Linear(in_features=768, out_features=2304, bias=True)
            (vida_down): Linear(in_features=768, out_features=1, bias=False)
            (vida_up): Linear(in_features=1, out_features=2304, bias=False)
            (vida_down2): Linear(in_features=768, out_features=128, bias=False)
            (vida_up2): Linear(in_features=128, out_features=2304, bias=False)
          )
          (attn_drop): Dropout(p=0.0, inplace=False)
          (proj): ViDAInjectedLinear(
            (linear_vida): Linear(in_features=768, out_features=768, bias=True)
            (vida_down): Linear(in_features=768, out_features=1, bias=False)
            (vida_up): Linear(in_features=1, out_features=768, bias=False)
            (vida_down2): Linear(in_features=768, out_features=128, bias=False)
            (vida_up2): Linear(in_features=128, out_features=768, bias=False)
          )
          (proj_drop): Dropout(p=0.0, inplace=False)
        )
        (drop_path): Identity()
        (norm2): LayerNorm((768,), eps=1e-06, elementwise_affine=True)
        (mlp): Mlp(
          (fc1): Linear(in_features=768, out_features=3072, bias=True)
          (act): GELU()
          (fc2): Linear(in_features=3072, out_features=768, bias=True)
          (drop): Dropout(p=0.0, inplace=False)
        )
      )
      (4): Block(
        (norm1): LayerNorm((768,), eps=1e-06, elementwise_affine=True)
        (attn): Attention(
          (qkv): ViDAInjectedLinear(
            (linear_vida): Linear(in_features=768, out_features=2304, bias=True)
            (vida_down): Linear(in_features=768, out_features=1, bias=False)
            (vida_up): Linear(in_features=1, out_features=2304, bias=False)
            (vida_down2): Linear(in_features=768, out_features=128, bias=False)
            (vida_up2): Linear(in_features=128, out_features=2304, bias=False)
          )
          (attn_drop): Dropout(p=0.0, inplace=False)
          (proj): ViDAInjectedLinear(
            (linear_vida): Linear(in_features=768, out_features=768, bias=True)
            (vida_down): Linear(in_features=768, out_features=1, bias=False)
            (vida_up): Linear(in_features=1, out_features=768, bias=False)
            (vida_down2): Linear(in_features=768, out_features=128, bias=False)
            (vida_up2): Linear(in_features=128, out_features=768, bias=False)
          )
          (proj_drop): Dropout(p=0.0, inplace=False)
        )
        (drop_path): Identity()
        (norm2): LayerNorm((768,), eps=1e-06, elementwise_affine=True)
        (mlp): Mlp(
          (fc1): Linear(in_features=768, out_features=3072, bias=True)
          (act): GELU()
          (fc2): Linear(in_features=3072, out_features=768, bias=True)
          (drop): Dropout(p=0.0, inplace=False)
        )
      )
      (5): Block(
        (norm1): LayerNorm((768,), eps=1e-06, elementwise_affine=True)
        (attn): Attention(
          (qkv): ViDAInjectedLinear(
            (linear_vida): Linear(in_features=768, out_features=2304, bias=True)
            (vida_down): Linear(in_features=768, out_features=1, bias=False)
            (vida_up): Linear(in_features=1, out_features=2304, bias=False)
            (vida_down2): Linear(in_features=768, out_features=128, bias=False)
            (vida_up2): Linear(in_features=128, out_features=2304, bias=False)
          )
          (attn_drop): Dropout(p=0.0, inplace=False)
          (proj): ViDAInjectedLinear(
            (linear_vida): Linear(in_features=768, out_features=768, bias=True)
            (vida_down): Linear(in_features=768, out_features=1, bias=False)
            (vida_up): Linear(in_features=1, out_features=768, bias=False)
            (vida_down2): Linear(in_features=768, out_features=128, bias=False)
            (vida_up2): Linear(in_features=128, out_features=768, bias=False)
          )
          (proj_drop): Dropout(p=0.0, inplace=False)
        )
        (drop_path): Identity()
        (norm2): LayerNorm((768,), eps=1e-06, elementwise_affine=True)
        (mlp): Mlp(
          (fc1): Linear(in_features=768, out_features=3072, bias=True)
          (act): GELU()
          (fc2): Linear(in_features=3072, out_features=768, bias=True)
          (drop): Dropout(p=0.0, inplace=False)
        )
      )
      (6): Block(
        (norm1): LayerNorm((768,), eps=1e-06, elementwise_affine=True)
        (attn): Attention(
          (qkv): ViDAInjectedLinear(
            (linear_vida): Linear(in_features=768, out_features=2304, bias=True)
            (vida_down): Linear(in_features=768, out_features=1, bias=False)
            (vida_up): Linear(in_features=1, out_features=2304, bias=False)
            (vida_down2): Linear(in_features=768, out_features=128, bias=False)
            (vida_up2): Linear(in_features=128, out_features=2304, bias=False)
          )
          (attn_drop): Dropout(p=0.0, inplace=False)
          (proj): ViDAInjectedLinear(
            (linear_vida): Linear(in_features=768, out_features=768, bias=True)
            (vida_down): Linear(in_features=768, out_features=1, bias=False)
            (vida_up): Linear(in_features=1, out_features=768, bias=False)
            (vida_down2): Linear(in_features=768, out_features=128, bias=False)
            (vida_up2): Linear(in_features=128, out_features=768, bias=False)
          )
          (proj_drop): Dropout(p=0.0, inplace=False)
        )
        (drop_path): Identity()
        (norm2): LayerNorm((768,), eps=1e-06, elementwise_affine=True)
        (mlp): Mlp(
          (fc1): Linear(in_features=768, out_features=3072, bias=True)
          (act): GELU()
          (fc2): Linear(in_features=3072, out_features=768, bias=True)
          (drop): Dropout(p=0.0, inplace=False)
        )
      )
      (7): Block(
        (norm1): LayerNorm((768,), eps=1e-06, elementwise_affine=True)
        (attn): Attention(
          (qkv): ViDAInjectedLinear(
            (linear_vida): Linear(in_features=768, out_features=2304, bias=True)
            (vida_down): Linear(in_features=768, out_features=1, bias=False)
            (vida_up): Linear(in_features=1, out_features=2304, bias=False)
            (vida_down2): Linear(in_features=768, out_features=128, bias=False)
            (vida_up2): Linear(in_features=128, out_features=2304, bias=False)
          )
          (attn_drop): Dropout(p=0.0, inplace=False)
          (proj): ViDAInjectedLinear(
            (linear_vida): Linear(in_features=768, out_features=768, bias=True)
            (vida_down): Linear(in_features=768, out_features=1, bias=False)
            (vida_up): Linear(in_features=1, out_features=768, bias=False)
            (vida_down2): Linear(in_features=768, out_features=128, bias=False)
            (vida_up2): Linear(in_features=128, out_features=768, bias=False)
          )
          (proj_drop): Dropout(p=0.0, inplace=False)
        )
        (drop_path): Identity()
        (norm2): LayerNorm((768,), eps=1e-06, elementwise_affine=True)
        (mlp): Mlp(
          (fc1): Linear(in_features=768, out_features=3072, bias=True)
          (act): GELU()
          (fc2): Linear(in_features=3072, out_features=768, bias=True)
          (drop): Dropout(p=0.0, inplace=False)
        )
      )
      (8): Block(
        (norm1): LayerNorm((768,), eps=1e-06, elementwise_affine=True)
        (attn): Attention(
          (qkv): ViDAInjectedLinear(
            (linear_vida): Linear(in_features=768, out_features=2304, bias=True)
            (vida_down): Linear(in_features=768, out_features=1, bias=False)
            (vida_up): Linear(in_features=1, out_features=2304, bias=False)
            (vida_down2): Linear(in_features=768, out_features=128, bias=False)
            (vida_up2): Linear(in_features=128, out_features=2304, bias=False)
          )
          (attn_drop): Dropout(p=0.0, inplace=False)
          (proj): ViDAInjectedLinear(
            (linear_vida): Linear(in_features=768, out_features=768, bias=True)
            (vida_down): Linear(in_features=768, out_features=1, bias=False)
            (vida_up): Linear(in_features=1, out_features=768, bias=False)
            (vida_down2): Linear(in_features=768, out_features=128, bias=False)
            (vida_up2): Linear(in_features=128, out_features=768, bias=False)
          )
          (proj_drop): Dropout(p=0.0, inplace=False)
        )
        (drop_path): Identity()
        (norm2): LayerNorm((768,), eps=1e-06, elementwise_affine=True)
        (mlp): Mlp(
          (fc1): Linear(in_features=768, out_features=3072, bias=True)
          (act): GELU()
          (fc2): Linear(in_features=3072, out_features=768, bias=True)
          (drop): Dropout(p=0.0, inplace=False)
        )
      )
      (9): Block(
        (norm1): LayerNorm((768,), eps=1e-06, elementwise_affine=True)
        (attn): Attention(
          (qkv): ViDAInjectedLinear(
            (linear_vida): Linear(in_features=768, out_features=2304, bias=True)
            (vida_down): Linear(in_features=768, out_features=1, bias=False)
            (vida_up): Linear(in_features=1, out_features=2304, bias=False)
            (vida_down2): Linear(in_features=768, out_features=128, bias=False)
            (vida_up2): Linear(in_features=128, out_features=2304, bias=False)
          )
          (attn_drop): Dropout(p=0.0, inplace=False)
          (proj): ViDAInjectedLinear(
            (linear_vida): Linear(in_features=768, out_features=768, bias=True)
            (vida_down): Linear(in_features=768, out_features=1, bias=False)
            (vida_up): Linear(in_features=1, out_features=768, bias=False)
            (vida_down2): Linear(in_features=768, out_features=128, bias=False)
            (vida_up2): Linear(in_features=128, out_features=768, bias=False)
          )
          (proj_drop): Dropout(p=0.0, inplace=False)
        )
        (drop_path): Identity()
        (norm2): LayerNorm((768,), eps=1e-06, elementwise_affine=True)
        (mlp): Mlp(
          (fc1): Linear(in_features=768, out_features=3072, bias=True)
          (act): GELU()
          (fc2): Linear(in_features=3072, out_features=768, bias=True)
          (drop): Dropout(p=0.0, inplace=False)
        )
      )
      (10): Block(
        (norm1): LayerNorm((768,), eps=1e-06, elementwise_affine=True)
        (attn): Attention(
          (qkv): ViDAInjectedLinear(
            (linear_vida): Linear(in_features=768, out_features=2304, bias=True)
            (vida_down): Linear(in_features=768, out_features=1, bias=False)
            (vida_up): Linear(in_features=1, out_features=2304, bias=False)
            (vida_down2): Linear(in_features=768, out_features=128, bias=False)
            (vida_up2): Linear(in_features=128, out_features=2304, bias=False)
          )
          (attn_drop): Dropout(p=0.0, inplace=False)
          (proj): ViDAInjectedLinear(
            (linear_vida): Linear(in_features=768, out_features=768, bias=True)
            (vida_down): Linear(in_features=768, out_features=1, bias=False)
            (vida_up): Linear(in_features=1, out_features=768, bias=False)
            (vida_down2): Linear(in_features=768, out_features=128, bias=False)
            (vida_up2): Linear(in_features=128, out_features=768, bias=False)
          )
          (proj_drop): Dropout(p=0.0, inplace=False)
        )
        (drop_path): Identity()
        (norm2): LayerNorm((768,), eps=1e-06, elementwise_affine=True)
        (mlp): Mlp(
          (fc1): Linear(in_features=768, out_features=3072, bias=True)
          (act): GELU()
          (fc2): Linear(in_features=3072, out_features=768, bias=True)
          (drop): Dropout(p=0.0, inplace=False)
        )
      )
      (11): Block(
        (norm1): LayerNorm((768,), eps=1e-06, elementwise_affine=True)
        (attn): Attention(
          (qkv): ViDAInjectedLinear(
            (linear_vida): Linear(in_features=768, out_features=2304, bias=True)
            (vida_down): Linear(in_features=768, out_features=1, bias=False)
            (vida_up): Linear(in_features=1, out_features=2304, bias=False)
            (vida_down2): Linear(in_features=768, out_features=128, bias=False)
            (vida_up2): Linear(in_features=128, out_features=2304, bias=False)
          )
          (attn_drop): Dropout(p=0.0, inplace=False)
          (proj): ViDAInjectedLinear(
            (linear_vida): Linear(in_features=768, out_features=768, bias=True)
            (vida_down): Linear(in_features=768, out_features=1, bias=False)
            (vida_up): Linear(in_features=1, out_features=768, bias=False)
            (vida_down2): Linear(in_features=768, out_features=128, bias=False)
            (vida_up2): Linear(in_features=128, out_features=768, bias=False)
          )
          (proj_drop): Dropout(p=0.0, inplace=False)
        )
        (drop_path): Identity()
        (norm2): LayerNorm((768,), eps=1e-06, elementwise_affine=True)
        (mlp): Mlp(
          (fc1): Linear(in_features=768, out_features=3072, bias=True)
          (act): GELU()
          (fc2): Linear(in_features=3072, out_features=768, bias=True)
          (drop): Dropout(p=0.0, inplace=False)
        )
      )
    )
    (norm): LayerNorm((768,), eps=1e-06, elementwise_affine=True)
    (pre_logits): Identity()
    (head): Linear(in_features=768, out_features=1000, bias=True)
  )
)
[24/03/11 08:08:39] [imagenetc.py:  153]: optimizer for adaptation: SGD (
Parameter Group 0
    dampening: 0.0
    lr: 5e-07
    momentum: 0.9
    nesterov: True
    weight_decay: 0.0

Parameter Group 1
    dampening: 0.0
    lr: 2e-07
    momentum: 0.9
    nesterov: True
    weight_decay: 0.0
)
[24/03/11 08:08:39] [imagenetc.py:   50]: resetting model
…
