…
  ADAPTATION: vida
  ARCH: Standard_VITB
  EPISODIC: False
OPTIM:
  AP: 0.92
  BETA: 0.9
  DAMPENING: 0.0
  LR: 0.0001
  METHOD: Adam
  MOMENTUM: 0.9
  MT: 0.999
  MT_ViDA: 0.999
  NESTEROV: True
  RST: 0.01
  STEPS: 1
  ViDALR: 1e-05
  WD: 0.0
RNG_SEED: 1
SAVE_DIR: ./output
TEST:
  BATCH_SIZE: 40
  ckpt: /dataset/vit_1_128_vida.t7
  vida_rank1: 1
  vida_rank2: 128
size: 384
[24/03/11 07:44:14] [cifar10c_vit.py:   46]: test-time adaptation: ViDA
[24/03/11 07:44:15] [cifar10c_vit.py:  170]: model for adaptation: DataParallel(
  (module): VisionTransformer(
    (patch_embed): PatchEmbed(
      (proj): Conv2d(3, 768, kernel_size=(16, 16), stride=(16, 16))
      (norm): Identity()
    )
    (pos_drop): Dropout(p=0.0, inplace=False)
    (blocks): Sequential(
      (0): Block(
        (norm1): LayerNorm((768,), eps=1e-06, elementwise_affine=True)
        (attn): Attention(
          (qkv): ViDAInjectedLinear(
            (linear_vida): Linear(in_features=768, out_features=2304, bias=True)
            (vida_down): Linear(in_features=768, out_features=1, bias=False)
            (vida_up): Linear(in_features=1, out_features=2304, bias=False)
            (vida_down2): Linear(in_features=768, out_features=128, bias=False)
            (vida_up2): Linear(in_features=128, out_features=2304, bias=False)
          )
          (attn_drop): Dropout(p=0.0, inplace=False)
          (proj): ViDAInjectedLinear(
            (linear_vida): Linear(in_features=768, out_features=768, bias=True)
            (vida_down): Linear(in_features=768, out_features=1, bias=False)
            (vida_up): Linear(in_features=1, out_features=768, bias=False)
            (vida_down2): Linear(in_features=768, out_features=128, bias=False)
            (vida_up2): Linear(in_features=128, out_features=768, bias=False)
          )
          (proj_drop): Dropout(p=0.0, inplace=False)
        )
        (drop_path): Identity()
        (norm2): LayerNorm((768,), eps=1e-06, elementwise_affine=True)
        (mlp): Mlp(
          (fc1): Linear(in_features=768, out_features=3072, bias=True)
          (act): GELU()
          (fc2): Linear(in_features=3072, out_features=768, bias=True)
          (drop): Dropout(p=0.0, inplace=False)
        )
      )
      (1): Block(
        (norm1): LayerNorm((768,), eps=1e-06, elementwise_affine=True)
        (attn): Attention(
          (qkv): ViDAInjectedLinear(
            (linear_vida): Linear(in_features=768, out_features=2304, bias=True)
            (vida_down): Linear(in_features=768, out_features=1, bias=False)
            (vida_up): Linear(in_features=1, out_features=2304, bias=False)
            (vida_down2): Linear(in_features=768, out_features=128, bias=False)
            (vida_up2): Linear(in_features=128, out_features=2304, bias=False)
          )
          (attn_drop): Dropout(p=0.0, inplace=False)
          (proj): ViDAInjectedLinear(
            (linear_vida): Linear(in_features=768, out_features=768, bias=True)
            (vida_down): Linear(in_features=768, out_features=1, bias=False)
            (vida_up): Linear(in_features=1, out_features=768, bias=False)
            (vida_down2): Linear(in_features=768, out_features=128, bias=False)
            (vida_up2): Linear(in_features=128, out_features=768, bias=False)
          )
          (proj_drop): Dropout(p=0.0, inplace=False)
        )
        (drop_path): Identity()
        (norm2): LayerNorm((768,), eps=1e-06, elementwise_affine=True)
        (mlp): Mlp(
          (fc1): Linear(in_features=768, out_features=3072, bias=True)
          (act): GELU()
          (fc2): Linear(in_features=3072, out_features=768, bias=True)
          (drop): Dropout(p=0.0, inplace=False)
        )
      )
      (2): Block(
        (norm1): LayerNorm((768,), eps=1e-06, elementwise_affine=True)
        (attn): Attention(
          (qkv): ViDAInjectedLinear(
            (linear_vida): Linear(in_features=768, out_features=2304, bias=True)
            (vida_down): Linear(in_features=768, out_features=1, bias=False)
            (vida_up): Linear(in_features=1, out_features=2304, bias=False)
            (vida_down2): Linear(in_features=768, out_features=128, bias=False)
            (vida_up2): Linear(in_features=128, out_features=2304, bias=False)
          )
          (attn_drop): Dropout(p=0.0, inplace=False)
          (proj): ViDAInjectedLinear(
            (linear_vida): Linear(in_features=768, out_features=768, bias=True)
            (vida_down): Linear(in_features=768, out_features=1, bias=False)
            (vida_up): Linear(in_features=1, out_features=768, bias=False)
            (vida_down2): Linear(in_features=768, out_features=128, bias=False)
            (vida_up2): Linear(in_features=128, out_features=768, bias=False)
          )
          (proj_drop): Dropout(p=0.0, inplace=False)
        )
        (drop_path): Identity()
        (norm2): LayerNorm((768,), eps=1e-06, elementwise_affine=True)
        (mlp): Mlp(
          (fc1): Linear(in_features=768, out_features=3072, bias=True)
          (act): GELU()
          (fc2): Linear(in_features=3072, out_features=768, bias=True)
          (drop): Dropout(p=0.0, inplace=False)
        )
      )
      (3): Block(
        (norm1): LayerNorm((768,), eps=1e-06, elementwise_affine=True)
        (attn): Attention(
          (qkv): ViDAInjectedLinear(
            (linear_vida): Linear(in_features=768, out_features=2304, bias=True)
            (vida_down): Linear(in_features=768, out_features=1, bias=False)
            (vida_up): Linear(in_features=1, out_features=2304, bias=False)
            (vida_down2): Linear(in_features=768, out_features=128, bias=False)
            (vida_up2): Linear(in_features=128, out_features=2304, bias=False)
          )
          (attn_drop): Dropout(p=0.0, inplace=False)
          (proj): ViDAInjectedLinear(
            (linear_vida): Linear(in_features=768, out_features=768, bias=True)
            (vida_down): Linear(in_features=768, out_features=1, bias=False)
            (vida_up): Linear(in_features=1, out_features=768, bias=False)
            (vida_down2): Linear(in_features=768, out_features=128, bias=False)
            (vida_up2): Linear(in_features=128, out_features=768, bias=False)
          )
          (proj_drop): Dropout(p=0.0, inplace=False)
        )
        (drop_path): Identity()
        (norm2): LayerNorm((768,), eps=1e-06, elementwise_affine=True)
        (mlp): Mlp(
          (fc1): Linear(in_features=768, out_features=3072, bias=True)
          (act): GELU()
          (fc2): Linear(in_features=3072, out_features=768, bias=True)
          (drop): Dropout(p=0.0, inplace=False)
        )
      )
      (4): Block(
        (norm1): LayerNorm((768,), eps=1e-06, elementwise_affine=True)
        (attn): Attention(
          (qkv): ViDAInjectedLinear(
            (linear_vida): Linear(in_features=768, out_features=2304, bias=True)
            (vida_down): Linear(in_features=768, out_features=1, bias=False)
            (vida_up): Linear(in_features=1, out_features=2304, bias=False)
            (vida_down2): Linear(in_features=768, out_features=128, bias=False)
            (vida_up2): Linear(in_features=128, out_features=2304, bias=False)
          )
          (attn_drop): Dropout(p=0.0, inplace=False)
          (proj): ViDAInjectedLinear(
            (linear_vida): Linear(in_features=768, out_features=768, bias=True)
            (vida_down): Linear(in_features=768, out_features=1, bias=False)
            (vida_up): Linear(in_features=1, out_features=768, bias=False)
            (vida_down2): Linear(in_features=768, out_features=128, bias=False)
            (vida_up2): Linear(in_features=128, out_features=768, bias=False)
          )
          (proj_drop): Dropout(p=0.0, inplace=False)
        )
        (drop_path): Identity()
        (norm2): LayerNorm((768,), eps=1e-06, elementwise_affine=True)
        (mlp): Mlp(
          (fc1): Linear(in_features=768, out_features=3072, bias=True)
          (act): GELU()
          (fc2): Linear(in_features=3072, out_features=768, bias=True)
          (drop): Dropout(p=0.0, inplace=False)
        )
      )
      (5): Block(
        (norm1): LayerNorm((768,), eps=1e-06, elementwise_affine=True)
        (attn): Attention(
          (qkv): ViDAInjectedLinear(
            (linear_vida): Linear(in_features=768, out_features=2304, bias=True)
            (vida_down): Linear(in_features=768, out_features=1, bias=False)
            (vida_up): Linear(in_features=1, out_features=2304, bias=False)
            (vida_down2): Linear(in_features=768, out_features=128, bias=False)
            (vida_up2): Linear(in_features=128, out_features=2304, bias=False)
          )
          (attn_drop): Dropout(p=0.0, inplace=False)
          (proj): ViDAInjectedLinear(
            (linear_vida): Linear(in_features=768, out_features=768, bias=True)
            (vida_down): Linear(in_features=768, out_features=1, bias=False)
            (vida_up): Linear(in_features=1, out_features=768, bias=False)
            (vida_down2): Linear(in_features=768, out_features=128, bias=False)
            (vida_up2): Linear(in_features=128, out_features=768, bias=False)
          )
          (proj_drop): Dropout(p=0.0, inplace=False)
        )
        (drop_path): Identity()
        (norm2): LayerNorm((768,), eps=1e-06, elementwise_affine=True)
        (mlp): Mlp(
          (fc1): Linear(in_features=768, out_features=3072, bias=True)
          (act): GELU()
          (fc2): Linear(in_features=3072, out_features=768, bias=True)
          (drop): Dropout(p=0.0, inplace=False)
        )
      )
      (6): Block(
        (norm1): LayerNorm((768,), eps=1e-06, elementwise_affine=True)
        (attn): Attention(
          (qkv): ViDAInjectedLinear(
            (linear_vida): Linear(in_features=768, out_features=2304, bias=True)
            (vida_down): Linear(in_features=768, out_features=1, bias=False)
            (vida_up): Linear(in_features=1, out_features=2304, bias=False)
            (vida_down2): Linear(in_features=768, out_features=128, bias=False)
            (vida_up2): Linear(in_features=128, out_features=2304, bias=False)
          )
          (attn_drop): Dropout(p=0.0, inplace=False)
          (proj): ViDAInjectedLinear(
            (linear_vida): Linear(in_features=768, out_features=768, bias=True)
            (vida_down): Linear(in_features=768, out_features=1, bias=False)
            (vida_up): Linear(in_features=1, out_features=768, bias=False)
            (vida_down2): Linear(in_features=768, out_features=128, bias=False)
            (vida_up2): Linear(in_features=128, out_features=768, bias=False)
          )
          (proj_drop): Dropout(p=0.0, inplace=False)
        )
        (drop_path): Identity()
        (norm2): LayerNorm((768,), eps=1e-06, elementwise_affine=True)
        (mlp): Mlp(
          (fc1): Linear(in_features=768, out_features=3072, bias=True)
          (act): GELU()
          (fc2): Linear(in_features=3072, out_features=768, bias=True)
          (drop): Dropout(p=0.0, inplace=False)
        )
      )
      (7): Block(
        (norm1): LayerNorm((768,), eps=1e-06, elementwise_affine=True)
        (attn): Attention(
          (qkv): ViDAInjectedLinear(
            (linear_vida): Linear(in_features=768, out_features=2304, bias=True)
            (vida_down): Linear(in_features=768, out_features=1, bias=False)
            (vida_up): Linear(in_features=1, out_features=2304, bias=False)
            (vida_down2): Linear(in_features=768, out_features=128, bias=False)
            (vida_up2): Linear(in_features=128, out_features=2304, bias=False)
          )
          (attn_drop): Dropout(p=0.0, inplace=False)
          (proj): ViDAInjectedLinear(
            (linear_vida): Linear(in_features=768, out_features=768, bias=True)
            (vida_down): Linear(in_features=768, out_features=1, bias=False)
            (vida_up): Linear(in_features=1, out_features=768, bias=False)
            (vida_down2): Linear(in_features=768, out_features=128, bias=False)
            (vida_up2): Linear(in_features=128, out_features=768, bias=False)
          )
          (proj_drop): Dropout(p=0.0, inplace=False)
        )
        (drop_path): Identity()
        (norm2): LayerNorm((768,), eps=1e-06, elementwise_affine=True)
        (mlp): Mlp(
          (fc1): Linear(in_features=768, out_features=3072, bias=True)
          (act): GELU()
          (fc2): Linear(in_features=3072, out_features=768, bias=True)
          (drop): Dropout(p=0.0, inplace=False)
        )
      )
      (8): Block(
        (norm1): LayerNorm((768,), eps=1e-06, elementwise_affine=True)
        (attn): Attention(
          (qkv): ViDAInjectedLinear(
            (linear_vida): Linear(in_features=768, out_features=2304, bias=True)
            (vida_down): Linear(in_features=768, out_features=1, bias=False)
            (vida_up): Linear(in_features=1, out_features=2304, bias=False)
            (vida_down2): Linear(in_features=768, out_features=128, bias=False)
            (vida_up2): Linear(in_features=128, out_features=2304, bias=False)
          )
          (attn_drop): Dropout(p=0.0, inplace=False)
          (proj): ViDAInjectedLinear(
            (linear_vida): Linear(in_features=768, out_features=768, bias=True)
            (vida_down): Linear(in_features=768, out_features=1, bias=False)
            (vida_up): Linear(in_features=1, out_features=768, bias=False)
            (vida_down2): Linear(in_features=768, out_features=128, bias=False)
            (vida_up2): Linear(in_features=128, out_features=768, bias=False)
          )
          (proj_drop): Dropout(p=0.0, inplace=False)
        )
        (drop_path): Identity()
        (norm2): LayerNorm((768,), eps=1e-06, elementwise_affine=True)
        (mlp): Mlp(
          (fc1): Linear(in_features=768, out_features=3072, bias=True)
          (act): GELU()
          (fc2): Linear(in_features=3072, out_features=768, bias=True)
          (drop): Dropout(p=0.0, inplace=False)
        )
      )
      (9): Block(
        (norm1): LayerNorm((768,), eps=1e-06, elementwise_affine=True)
        (attn): Attention(
          (qkv): ViDAInjectedLinear(
            (linear_vida): Linear(in_features=768, out_features=2304, bias=True)
            (vida_down): Linear(in_features=768, out_features=1, bias=False)
            (vida_up): Linear(in_features=1, out_features=2304, bias=False)
            (vida_down2): Linear(in_features=768, out_features=128, bias=False)
            (vida_up2): Linear(in_features=128, out_features=2304, bias=False)
          )
          (attn_drop): Dropout(p=0.0, inplace=False)
          (proj): ViDAInjectedLinear(
            (linear_vida): Linear(in_features=768, out_features=768, bias=True)
            (vida_down): Linear(in_features=768, out_features=1, bias=False)
            (vida_up): Linear(in_features=1, out_features=768, bias=False)
            (vida_down2): Linear(in_features=768, out_features=128, bias=False)
            (vida_up2): Linear(in_features=128, out_features=768, bias=False)
          )
          (proj_drop): Dropout(p=0.0, inplace=False)
        )
        (drop_path): Identity()
        (norm2): LayerNorm((768,), eps=1e-06, elementwise_affine=True)
        (mlp): Mlp(
          (fc1): Linear(in_features=768, out_features=3072, bias=True)
          (act): GELU()
          (fc2): Linear(in_features=3072, out_features=768, bias=True)
          (drop): Dropout(p=0.0, inplace=False)
        )
      )
      (10): Block(
        (norm1): LayerNorm((768,), eps=1e-06, elementwise_affine=True)
        (attn): Attention(
          (qkv): ViDAInjectedLinear(
            (linear_vida): Linear(in_features=768, out_features=2304, bias=True)
            (vida_down): Linear(in_features=768, out_features=1, bias=False)
            (vida_up): Linear(in_features=1, out_features=2304, bias=False)
            (vida_down2): Linear(in_features=768, out_features=128, bias=False)
            (vida_up2): Linear(in_features=128, out_features=2304, bias=False)
          )
          (attn_drop): Dropout(p=0.0, inplace=False)
          (proj): ViDAInjectedLinear(
            (linear_vida): Linear(in_features=768, out_features=768, bias=True)
            (vida_down): Linear(in_features=768, out_features=1, bias=False)
            (vida_up): Linear(in_features=1, out_features=768, bias=False)
            (vida_down2): Linear(in_features=768, out_features=128, bias=False)
            (vida_up2): Linear(in_features=128, out_features=768, bias=False)
          )
          (proj_drop): Dropout(p=0.0, inplace=False)
        )
        (drop_path): Identity()
        (norm2): LayerNorm((768,), eps=1e-06, elementwise_affine=True)
        (mlp): Mlp(
          (fc1): Linear(in_features=768, out_features=3072, bias=True)
          (act): GELU()
          (fc2): Linear(in_features=3072, out_features=768, bias=True)
          (drop): Dropout(p=0.0, inplace=False)
        )
      )
      (11): Block(
        (norm1): LayerNorm((768,), eps=1e-06, elementwise_affine=True)
        (attn): Attention(
          (qkv): ViDAInjectedLinear(
            (linear_vida): Linear(in_features=768, out_features=2304, bias=True)
            (vida_down): Linear(in_features=768, out_features=1, bias=False)
            (vida_up): Linear(in_features=1, out_features=2304, bias=False)
            (vida_down2): Linear(in_features=768, out_features=128, bias=False)
            (vida_up2): Linear(in_features=128, out_features=2304, bias=False)
          )
          (attn_drop): Dropout(p=0.0, inplace=False)
          (proj): ViDAInjectedLinear(
            (linear_vida): Linear(in_features=768, out_features=768, bias=True)
            (vida_down): Linear(in_features=768, out_features=1, bias=False)
            (vida_up): Linear(in_features=1, out_features=768, bias=False)
            (vida_down2): Linear(in_features=768, out_features=128, bias=False)
            (vida_up2): Linear(in_features=128, out_features=768, bias=False)
          )
          (proj_drop): Dropout(p=0.0, inplace=False)
        )
        (drop_path): Identity()
        (norm2): LayerNorm((768,), eps=1e-06, elementwise_affine=True)
        (mlp): Mlp(
          (fc1): Linear(in_features=768, out_features=3072, bias=True)
          (act): GELU()
          (fc2): Linear(in_features=3072, out_features=768, bias=True)
          (drop): Dropout(p=0.0, inplace=False)
        )
      )
    )
    (norm): LayerNorm((768,), eps=1e-06, elementwise_affine=True)
    (pre_logits): Identity()
    (head): Linear(in_features=768, out_features=10, bias=True)
  )
)
[24/03/11 07:44:15] [cifar10c_vit.py:  171]: optimizer for adaptation: Adam (
Parameter Group 0
    amsgrad: False
    betas: (0.9, 0.999)
    eps: 1e-08
    lr: 0.0001
    weight_decay: 0.0

Parameter Group 1
    amsgrad: False
    betas: (0.9, 0.999)
    eps: 1e-08
    lr: 1e-05
    weight_decay: 0.0
)
[24/03/11 07:44:15] [cifar10c_vit.py:   55]: resetting model
…
